mnist-logistic.pth (torch, 32511 bytes, 2 tensors)

linear.weight f4 [10, 784]
0	0x3cba9ba6	0.022779297
1	0xbc21062e	-0.0098281335
2	0xbca1dab7	-0.019757612
3	0x3d0c8e37	0.034315314
4	0xbd0e1432	-0.03468723
5	0x3c2ffc84	0.010741357
6	0x3bb1e7b8	0.0054292344
7	0xbbeff524	-0.007322924
8	0x3cad6302	0.021165375
9	0x3b51ad70	0.0031994246
10	0xbab05340	-0.0013452545
11	0x3d106bcf	0.035259064
12	0xbc8fae1f	-0.017539082
13	0xbd05d421	-0.032673005
14	0x3d0dda5c	0.03463207
15	0xbc823c29	-0.015897827
16	0xbcc2f7a5	-0.023799727
17	0xbbd8e178	-0.006618675
18	0xbbfc6f00	-0.007703662
19	0x3b6f3fd0	0.003650654
20	0x3c56ede0	0.013118237
21	0x3ba3a470	0.0049939677
22	0xbb6653d0	-0.003514517
23	0xbbe0bf54	-0.0068587456
24	0x3d0248d1	0.031807724
25	0x3b43b320	0.0029861405
26	0xbc5f7ae0	-0.0136401355
27	0x3c7227dc	0.014780011
28	0xbaffa300	-0.0019503534
29	0xbccba475	-0.024858693
30	0xbd1112f5	-0.03541847
31	0xbcb16d6e	-0.021658625
32	0x3cafc524	0.021456309
33	0x3ce6e045	0.028183112
34	0xbc899a4a	-0.016797204
35	0xbc9fe6d0	-0.01951924
36	0x3c0039b6	0.007826259
37	0xbccb6d98	-0.024832532
38	0x3c1c18f3	0.009527433
39	0xbca5421c	-0.020173125
40	0x3c144ff9	0.00905227
41	0xbca628af	-0.020283071
42	0xbb66e74e	-0.0035233083
43	0x3ca4789b	0.02007704
44	0xbbb6568a	-0.0055645155
45	0x3cf02125	0.02931268
46	0xbc219621	-0.009862454
47	0x3b7a8531	0.003822636
48	0x3c8e278b	0.01735284
49	0x3cee854f	0.0291163
50	0x3bbf3326	0.005834955
51	0x3c2e925b	0.010655011
52	0xbca5f353	-0.020257628
53	0x3cad38da	0.021145273
54	0xbc134cf8	-0.008990519
55	0x3cc7b48c	0.024378084
56	0x3bd44e20	0.00647904
57	0x3cabf26c	0.02098962
58	0xbce4adc8	-0.027914897
59	0xbcbbe2c5	-0.02293528
60	0xbc5b39ab	-0.013380448
61	0x3bb462af	0.005504928
62	0xbbc8fb2c	-0.0061334576
63	0x3cf80738	0.03027688
64	0xbcaba314	-0.020951785
65	0x3b42cb79	0.002972333
66	0xbc9c5811	-0.019084962
67	0xbc89312a	-0.016747076
68	0xbbd71712	-0.0065640295
69	0xbcd5fee7	-0.026122523
70	0x3ca45730	0.020061105
71	0xbc4dfb4c	-0.012572121
72	0xbc5a742b	-0.013333361
73	0xbd098de0	-0.03358257
74	0x3c898568	0.016787246
75	0xbcad3448	-0.021143094
76	0x3ce0472b	0.027377686
77	0xbcc99c90	-0.024610788
78	0xbc9219cc	-0.017834567
79	0x3cd4e4a3	0.025987929
80	0xbcf4a08b	-0.02986171
81	0xbc9be0d6	-0.019028109
82	0xbc884fee	-0.016639676
83	0xbbcfac48	-0.006337676
84	0xbcd0bd50	-0.025480896
85	0xbc509bf8	-0.012732498
86	0xbd005fab	-0.031341236
87	0xbb84f318	-0.0040572993
88	0xbc1cb1db	-0.009563888
89	0xbd04bc3a	-0.03240607
90	0x3cd2a945	0.02571548
91	0xbc7633ac	-0.015026968
92	0xbb890639	-0.00418165
93	0x3c27feb3	0.010253596
94	0x3c48edf8	0.012263767
95	0xbcc9a89d	-0.024616534
96	0xbd0426bc	-0.032263502
97	0xbd058cb3	-0.032604884
98	0x3c838626	0.016055178
99	0xb938b681	-0.00017615595
100	0x3c51726c	0.012783628
101	0x3ca293d3	0.019845879
102	0x3c24d592	0.010060685
103	0xbc42db44	-0.011893097
104	0xbcdf4c97	-0.0272582
105	0x3b42ea4a	0.0029741698
106	0x3bd44957	0.0064784694
107	0xbbe058c3	-0.0068465187
108	0xbc8d2867	-0.01723118
109	0x3d11e938	0.035622805
110	0xbcaabf4a	-0.020843167
111	0x3c9d2cf0	0.019186467
112	0x3d08add5	0.033368904
113	0x3b785ed4	0.003789832
114	0xbc94d0cf	-0.018165974
115	0xb9d5bb88	-0.00040766248
116	0xbc2d4bff	-0.010577201
117	0xbc23b8cb	-0.009992789
118	0xbaffedd5	-0.0019525836
119	0x3c8135cf	0.015772728
120	0xbc682927	-0.014169968
121	0xbbc6de16	-0.006068955
122	0xba9a6e0f	-0.0011782068
123	0xbcbfe8e1	-0.023426475
124	0x3ccde85d	0.025135214
125	0xbbaf6d48	-0.0053536035
126	0xbcf3ebf5	-0.029775599
127	0x3d0ff8d4	0.03514941
128	0x3b82472a	0.0039757686
129	0xbd06805f	-0.032837268
130	0x3d06cf73	0.032912683
131	0xbbe6df9b	-0.007045699
132	0x3c4e51ca	0.012592742
133	0xbc744ec0	-0.014911354
134	0xbc6c4e62	-0.014422985
135	0xbd00ccb9	-0.03144524
136	0xbcf2b203	-0.029625898
137	0xbced0054	-0.02893082
138	0xbc825f33	-0.015914535
139	0x3c5b58ee	0.013387902
140	0xbb9c1fdc	-0.00476454
141	0xbae1a7e0	-0.0017216168
142	0x3c97ae6a	0.018515784
143	0xbc9e8e4c	-0.019354962
144	0xbcdba798	-0.026813313
145	0x3c323d87	0.010878927
146	0x3c955e5e	0.018233474
147	0xbc93ab0a	-0.018025894
148	0xbb959730	-0.004565142
149	0x3c93b05d	0.018028433
150	0x3cca56ed	0.024699653
151	0x3bec2766	0.007206845
152	0xbc89c3d6	-0.016817015
153	0xbc168703	-0.009187463
154	0x3d013e7c	0.03155373
155	0xbcb97142	-0.022637013
156	0x3d43aad3	0.047770333
157	0xbca12646	-0.01967157
158	0x3d276268	0.040865332
159	0x3c81848b	0.015810272
160	0xbca7b84d	-0.020473624
161	0xbce7ada1	-0.028281035
162	0xbced990d	-0.029003644
163	0xbb03077e	-0.001999348
164	0x3cc9e753	0.024646437
165	0xbc7cf942	-0.015440287
166	0xbc96feb8	-0.018432006
167	0xbc843230	-0.016137213
168	0xbc17d55c	-0.009267177
169	0x3c9c280c	0.019062065
170	0x3cd932af	0.026513426
171	0xbcea0811	-0.0285683
172	0x3bd6e221	0.0065577184
173	0xbc5cf6f1	-0.01348661
174	0x3c698c24	0.014254604
175	0x3cb15457	0.021646662
176	0xbd0372fd	-0.032092083
177	0xbbdbed7d	-0.0067116604
178	0xbc956b97	-0.01823978
179	0x3c8d8dde	0.017279562
180	0x3c9d7e0c	0.019225143
181	0xbc85eb72	-0.01634762
182	0x3d0ff541	0.035146
183	0xbc8dbe62	-0.017302696
184	0x3c0a8fef	0.008457168
185	0xbc01327a	-0.00788557
186	0x3d2cd920	0.042199254
187	0x3c7ac813	0.0153064905
188	0x3d22bb88	0.039729625
189	0x3ca07273	0.019585824
190	0xbc5a0658	-0.0133071765
191	0xbd1633d6	-0.03667053
192	0x3c1349f3	0.008989799
193	0x3ac29fb7	0.0014848624
194	0xbbcec423	-0.0063100024
195	0xbcf9c797	-0.03049068
196	0x3cb9bf42	0.022674207
197	0xbcf90d07	-0.03040172
198	0x3c8811dc	0.016610079
199	0x3b2a8755	0.0026020606
200	0xbcc80300	-0.024415493
201	0x3cdec605	0.027194032
202	0xbbe71855	-0.007052461
203	0xbd20b514	-0.03923519
204	0xbce3ab54	-0.027791657
205	0xbd09a2e6	-0.033602618
206	0x3be3bfed	0.0069503696
207	0x3cbe4188	0.023224607
208	0xbbfdbe81	-0.007743657
209	0x3d0fd0a6	0.035111092
210	0xbc3a6aec	-0.011378031
211	0xbbfacd93	-0.007653901
212	0x3bcc37a1	0.0062322174
213	0x3d03d12c	0.032181904
214	0x3c9e369a	0.019313145
215	0xbbe9761d	-0.007124676
216	0x3ca2bc24	0.019865103
217	0xb9fc180a	-0.00048083096
218	0x3c94da3c	0.018170469
219	0x3a7b0817	0.00095760956
220	0xbc991f02	-0.018691543
221	0xbbbfbfc8	-0.0058517195
222	0xbcfc76be	-0.03081834
223	0x3cc1da27	0.023663593
224	0xbcfd663f	-0.030932544
225	0xbcf72853	-0.030170595
226	0xbd11a367	-0.035556223
227	0x3cd3a5c3	0.025835877
228	0xbc12589d	-0.00893226
229	0xbc41f011	-0.011837021
230	0xbc7efedf	-0.015563696
231	0xbc85f69a	-0.01635294
232	0x3c778bd5	0.015109022
233	0x3b69bbf1	0.0035665
234	0xbc720e69	-0.014773943
235	0x3b621830	0.003449928
236	0x39a45c92	0.00031349488
237	0x3cfc6d8a	0.030813951
238	0x3d1c01b0	0.038087547
239	0xbcd98ff6	-0.026557904
240	0x3b8d0b71	0.0043043424
241	0x3cf0bd1c	0.02938705
242	0x3c8d4f65	0.017249772
243	0x39fc66ac	0.00048141682
244	0x3d4a4b49	0.049388204
245	0x3c3df959	0.011595094
246	0x3c179a7b	0.00925314
247	0x3ccf0447	0.025270594
248	0xbcebcada	-0.02878325
249	0xbc8c794f	-0.017147688
250	0x3c02a251	0.00797327
251	0x3b6a8c3e	0.0035789157
252	0xbc26d751	-0.010183171
253	0x3ce55ec8	0.027999297
254	0x3d0e956a	0.03481046
255	0x3d0a2a6e	0.03373187

linear.bias f4 [10]
0	0xbd0824c1	-0.033238176
1	0x3cf8ed18	0.030386493
2	0xbc03ac8c	-0.008036744
3	0x3ccc1adb	0.02491515
4	0xbc2b5044	-0.010456149
5	0xbca7ac6d	-0.020467961
6	0xbcac7234	-0.02105055
7	0x3a9364ce	0.0011245252
8	0x3bd6e12c	0.0065576043
9	0xbcbe2d21	-0.023214879
